avicii/proprietary/etc/perf/wlc_model.tflite (tflite, 92060 bytes, 7 tensors)

dense/MatMul_bias f4 [100]
000000 10 4f fb bd 11 73 a3 3d ea 30 15 be e3 a8 bc bc
       -0.12270939 0.079809316 -0.1456944 -0.02302975
000010 00 5b f6 bd 0a ea 69 be e9 6e 45 3d be 6d 9c bc
       -0.120290756 -0.22843185 0.048201475 -0.019095298
000020 9f 5e fe bd ec 5a af bc 2c 00 7d bd 3e 43 02 be
       -0.12420391 -0.02140566 -0.061767742 -0.12720963
000030 82 ba cf bd b2 b2 2e be 37 f0 e4 bd 48 88 8a bd
       -0.101429954 -0.17060354 -0.1117863 -0.06764275
000040 b6 36 68 bc 68 29 5d be 43 8f 33 3d 98 55 36 be
       -0.0141732 -0.21597826 0.043837797 -0.17806089
000050 8a ee 50 bd 48 a3 d6 bd 41 85 b4 bd 53 c8 2b be
       -0.05100874 -0.10480362 -0.08814479 -0.16775636
000060 ec 91 37 be 69 c8 9e bd b6 be 8c bd a1 7b 16 be
       -0.17926759 -0.07753069 -0.06872313 -0.14695598
000070 61 3a a4 3c 72 ab 66 bd ac 42 4f bb 60 cf fe bd
       0.020047368 -0.056315847 -0.0031625433 -0.124418974
000080 35 fd d5 3c 09 28 24 be 01 a0 f6 bd f1 4a cc bd
       0.026121715 -0.16030897 -0.12042237 -0.099752314
000090 00 c5 ac bd 76 8c ac bb 7b a3 1b 3d 8d 97 39 be
       -0.08436012 -0.0052657677 0.037997704 -0.18124218
0000a0 14 7d 7f 3d 71 f2 0e bd 81 8c 14 be 68 15 6f bd
       0.062375143 -0.03489918 -0.14506723 -0.058370024
0000b0 26 7c 14 be e5 4b 2f 3d 28 1f e3 bd a1 8d 29 be
       -0.14500484 0.042796988 -0.11089927 -0.16557933
0000c0 13 25 ea 3a 86 c8 fa bd cc 2b ee bd 92 e3 79 bd
       0.0017863832 -0.12245278 -0.11629447 -0.061008044
0000d0 71 d7 76 bc 16 63 c5 3c 74 47 63 3d 99 4b 30 3d
       -0.015066014 0.0240951 0.055488065 0.043040846
0000e0 1d fd c4 bc a9 8a 68 bb 11 42 36 be 1a 2c af bb
       -0.024046475 -0.0035483039 -0.1779864 -0.0053458335
0000f0 cc ce dc 3a c5 af 5a be a9 93 41 bd 92 fd 1d be
       0.0016846298 -0.21356113 -0.04725996 -0.1542876
000100 5e 24 35 3c 7f 59 c3 bb 8a 24 ff bc c8 14 2f be
       0.011056034 -0.0059615965 -0.031145353 -0.17097771
000110 27 eb 1f 3d d3 f4 5e be d2 6a 38 bc 28 1a 9f bc
       0.039042618 -0.2177308 -0.011255937 -0.019421652
000120 65 19 3c bd 0b 9d 07 bd 7e ca fd 3b c4 11 27 be
       -0.045922656 -0.033108752 0.007745086 -0.16315371
000130 10 73 0b be 09 fd 6c be d6 26 55 3c c6 41 75 be
       -0.13618112 -0.231434 0.0130097475 -0.23950872
000140 03 cf ee bd 38 08 f3 bd 2e 9b 94 3c b1 0d 8e bd
       -0.11660578 -0.11866802 0.018140402 -0.06936205
000150 a2 23 37 bc c1 83 e8 bd be cf 45 bd 19 26 d2 bd
       -0.011177929 -0.11353255 -0.04829382 -0.10261173
000160 87 f0 17 bc 9e d9 04 be c0 e0 f9 bc 2a aa 00 be
       -0.009273655 -0.1297364 -0.030502677 -0.12564912
000170 3c 46 ef 3c aa 15 6b 3b 2d 9d bb 3d 48 1c b2 bd
       0.029208295 0.0035871067 0.09160838 -0.086968005
000180 63 81 de bd 35 1c cd bd cc 3c ea bd cc c3 c4 bd
       -0.10864522 -0.10015146 -0.11437377 -0.09607658

dense/kernel/transpose f4 [100, 22]
000000 e0 07 5f 3e bc 40 33 bf 14 69 50 3f 7f 8a 79 3e
       0.21780348 -0.7002065 0.81410336 0.24369238
000010 e0 14 9d 3d f9 db 1a bd a9 63 7c bf 73 94 e1 3b
       0.07669997 -0.03780744 -0.9858957 0.0068841516
000020 1c 29 86 3e ce 5b c7 3c b7 b4 d3 bd 97 0b 2b be
       0.2620324 0.024335768 -0.10337203 -0.1670364
000030 d6 9b 3e 3e f9 e3 75 bd 7c ae 0f 3d c0 a4 f3 bd
       0.18614134 -0.060031865 0.03507851 -0.11896658
000040 30 35 09 be c7 08 bb 3c f9 0f 1d 3e 7f a0 52 3d
       -0.13399196 0.022831334 0.15338124 0.051422592
000050 51 58 9c 3e de 63 e3 bd 27 12 7b be 54 2c 10 3f
       0.3053613 -0.111030325 -0.24518643 0.5631764
000060 c8 1f 19 be be 14 ff be 02 34 e9 be bf 82 2f 3e
       -0.1495353 -0.49820513 -0.4554749 0.1713972
000070 df 00 e2 3e b4 34 b2 be 72 2c ee bd 1e cf 0d be
       0.4414129 -0.34805834 -0.11629571 -0.1384854
000080 c4 01 63 3e c7 3b 37 3e 60 ee 7c bd 93 f8 e0 3d
       0.22168642 0.17893897 -0.06175077 0.10984912
000090 37 3b 74 be 43 3f 7b bd fe 77 98 3e e7 6d 7b be
       -0.23850714 -0.061339628 0.29779047 -0.24553643
0000a0 7f 6c eb bb 36 11 f5 bd c3 8f d3 bc 52 b1 f3 3d
       -0.0071845646 -0.11966173 -0.025825387 0.118990555
0000b0 b4 6e fb 3e b7 7c 1b be 66 97 85 3f 3e e3 b4 3e
       0.49107897 -0.15184294 1.0436828 0.35329622
0000c0 1d 4f 8f 3d ab eb 36 3e 30 1c 55 3e 32 7f 86 3d
       0.069975115 0.17863338 0.20811534 0.06567229
0000d0 fa 94 12 bf 0b 19 00 3e 61 ed b9 3e 85 ae 31 be
       -0.5725857 0.12509553 0.36313918 -0.1735173
0000e0 8a 55 83 bd 31 c6 6f 3e e5 77 07 bf 7a 30 b6 3c
       -0.064128 0.23415448 -0.5291732 0.022239912
0000f0 f9 5b 1a be 2c ed 8c 3e b2 43 cb 3b 2e 7b 25 3f
       -0.15074147 0.27524698 0.0062031383 0.6464108
000100 6b d4 9c be 3f ad 36 be 26 2e 3d 3e 78 65 b0 bd
       -0.30630812 -0.17839526 0.18474635 -0.08613104
000110 60 e0 d5 3e b3 d3 dc 3e 1e ed 42 3c 36 bb 8e be
       0.41772747 0.43130264 0.011897353 -0.27877206
000120 8b 72 9c be b7 62 59 3e 74 15 8a be 54 1b af be
       -0.3055614 0.21229063 -0.26969492 -0.34200537
000130 94 2c 43 3e 9d 12 74 3d 66 cb b1 3d 41 54 98 3e
       0.19059974 0.059588064 0.08681373 0.2975178
000140 50 dd 15 bf 22 29 6e 3c 15 bf 81 be 7c 3a 9f 3e
       -0.5854082 0.014536174 -0.25341097 0.31099308
000150 3b b1 79 bd 52 b4 cd 3e fe 0a c1 be 86 49 8e be
       -0.060960036 0.40176636 -0.377037 -0.2779047
000160 66 ad 28 3c 41 94 26 bf 24 2c b3 3c d9 b0 2b 3b
       0.010295248 -0.6506997 0.021871634 0.0026197939
000170 8c f5 f9 bc 98 d6 30 bf 79 45 80 bf 44 87 6e 3e
       -0.030512594 -0.69077444 -1.0021201 0.23293787
000180 39 83 ae be 27 f2 37 bf 4f 52 65 3e 0e 69 83 b9
       -0.3408449 -0.7185387 0.2239468 -0.0002506454
000190 c2 6a 72 3e 02 cd 65 be b1 28 53 3e bc 82 1a bc
       0.23673537 -0.22441486 0.20620991 -0.009430584
0001a0 8b 6a 1e be cd de 7c 3e 8b 5e 20 3d 37 d0 84 3e
       -0.1547033 0.24694367 0.039152663 0.25940105
0001b0 b1 de 36 bd 25 a7 be bd 18 c2 5c 3e 95 c3 7a bf
       -0.04464597 -0.09309224 0.21558416 -0.97954684
0001c0 c8 01 62 be 2e d3 49 be 1c 41 a7 be e1 50 60 be
       -0.22070992 -0.19709465 -0.32666862 -0.21905853
0001d0 9d d4 44 be d9 27 f7 3e 30 c7 a7 bd 4f f2 e6 be
       -0.1922173 0.4827259 -0.08192289 -0.45106742
0001e0 07 4f da be a0 09 a6 3c 50 b2 7a 3d 90 91 b5 3d
       -0.42638418 0.020268261 0.06120521 0.088656545
0001f0 3c 2b d8 3e 13 dd 7a 3e 18 2d 26 bd ac 0a 59 3e
       0.42220485 0.24498396 -0.04057035 0.21195477
000200 54 58 8c be 7e d4 11 3f b0 ad 2e 3e f3 82 7d 3d
       -0.2741114 0.5696486 0.17058444 0.06189246
000210 d0 ec 73 be 8b 62 11 3f 19 16 56 bf 17 18 bd be
       -0.23820806 0.5679099 -0.8362747 -0.36932442
000220 1c 31 2b be 3d 0e bf 3e 8c 20 c6 3e 46 60 3a bf
       -0.16717952 0.3731555 0.38696706 -0.7280315
000230 bf a2 8e bd 74 40 5e 3e 9f 18 71 be ae 1c 4f 3d
       -0.06964635 0.21704274 -0.23544548 0.05056446
000240 62 6a 0b bc dc 2c ac be ab 62 35 3d 23 54 a1 3d
       -0.00850925 -0.33627975 0.04428355 0.07877376
000250 cb 61 0f 3f 40 9c 17 be 2f cc d3 bd ce 4f 09 bd
       0.56008595 -0.14805698 -0.10341679 -0.033523373
000260 b5 40 a1 bd 6b ce f3 3d d6 3e 92 3d a0 86 73 3f
       -0.0787367 0.119046055 0.07140891 0.95127296
000270 01 6c 6d bf 5e de 44 3e 20 0b 03 bc cb 79 e4 3d
       -0.92742926 0.19225451 -0.007998258 0.11156043
000280 97 fe 34 3f 68 28 0a bf d9 e2 0f 3d bf 47 5a bd
       0.70700973 -0.53967905 0.03512845 -0.05329108
000290 3c 5c d4 be 9e 5a 27 bd 90 0a 24 bd 87 63 a9 be
       -0.4147662 -0.040857904 -0.040049136 -0.33083746
0002a0 d0 93 4d be 12 46 53 bd 1d 87 2e 3f 2a 9d c7 bd
       -0.20075917 -0.051580496 0.68174917 -0.097467735
0002b0 08 d0 6a bd 3e 09 5d bd 90 44 1c be b6 49 4a be
       -0.0573273 -0.053963892 -0.1526053 -0.19754681
0002c0 39 1e cc be 81 19 86 be 93 c4 ef 3e 05 17 87 be
       -0.39866808 -0.26191333 0.46829662 -0.2638475
0002d0 9d 33 40 be c0 38 a7 bd 4e f5 34 3e 0b d1 c5 be
       -0.18769689 -0.08165121 0.17671701 -0.3863605
0002e0 0f cf e9 bd 95 26 ca 3d 53 4f 0c bd 96 50 d1 3d
       -0.114164464 0.0987064 -0.034255337 0.10220449
0002f0 0c df c4 3c 7c a9 4d bf 10 6a 89 3c e7 db 51 3e
       0.024032138 -0.8033674 0.016774207 0.20494042
000300 e9 12 28 3f a3 a0 6f be 70 77 dd 3d e7 3b f5 bd
       0.65653855 -0.23401122 0.108137965 -0.11974316
000310 73 7f be bd 78 11 b2 3d 79 e7 9f 3e 3c cf 89 be
       -0.09301653 0.08694738 0.31231287 -0.2691592
000320 0c 1a c5 3e 71 bb 83 3e 85 55 ae 3d 21 bf ec be
       0.38496435 0.25728944 0.08512405 -0.4623957
000330 66 de 9b be ca 65 02 3e 7c 1a d2 be e0 5c 03 bf
       -0.30443114 0.12734142 -0.4103583 -0.5131359
000340 2d 42 1a 3e 7e f2 9d 3e 60 66 e4 bc f1 29 0a 3e
       0.15064307 0.3084907 -0.027880847 0.13492562
000350 0b 1e 14 be ec 49 4f 3d 89 12 8b bc 9e 71 98 3d
       -0.14464585 0.050607607 -0.016976612 0.07443546
000360 e1 45 93 bd 1c 3b c4 3d 2f 35 26 3e 10 00 8d be
       -0.07191063 0.09581587 0.16231225 -0.2753911
000370 11 80 16 bf 1e 82 d5 be 03 36 9c 3d 3f 7f 16 bf
       -0.58789164 -0.41700834 0.076274894 -0.5878791
000380 24 3f f4 3d 75 7b 06 bf f6 38 92 be cf 37 9b be
       0.119261056 -0.5253213 -0.28559083 -0.30316016
000390 79 e2 86 be e3 6c 38 bf 65 21 15 3f 81 f3 0b bf
       -0.2634466 -0.7204115 0.5825408 -0.5466843
0003a0 5d 72 45 3d 0b b3 af 3e e6 ff 74 3e 10 c2 d4 bd
       0.04820477 0.34316286 0.23925743 -0.10388577
0003b0 45 49 54 bd 37 1e 12 bd 3e 93 aa be bf 14 d5 3e
       -0.051827688 -0.035673346 -0.33315462 0.4161739
0003c0 c9 3c a0 3e 9c b5 67 3d 22 31 9b 3e 47 de 3c be
       0.31296375 0.05656968 0.30310923 -0.18444167
0003d0 65 41 67 3f 13 e4 3e 3f 9a d1 98 3d ca 56 b6 3d
       0.9033416 0.74566764 0.07461853 0.089032724
0003e0 73 a4 33 3e 1e 47 34 be 97 24 75 bc 2a d5 b5 3d
       0.17543201 -0.17605254 -0.014962337 0.088785484
0003f0 fd 04 18 3f 36 75 f5 be 20 95 1c be c1 3d 69 3e
       0.5938261 -0.47940987 -0.15291262 0.22777463

dense_1/MatMul_bias f4 [100]
000000 76 46 09 bc 5d 60 80 bb b2 67 b7 bb 96 fe f2 3c
       -0.008378616 -0.0039177374 -0.0055970782 0.029662412
000010 0b 00 6f 3b 45 5a b1 bc 83 a2 c6 bc 60 2f ed 3c
       0.0036468531 -0.02164949 -0.024247414 0.028953254
000020 9d e4 94 3c 04 7c 95 3c de 3e c8 bc 18 b0 bd 3c
       0.018175418 0.018247612 -0.02444404 0.023155257
000030 2f 4c 6d 3d 92 ec 37 3c 0e 9c 34 3b 72 16 4c bb
       0.057933982 0.011225836 0.0027558836 -0.0031141308
000040 bf 78 14 bd 31 86 5f bb c9 48 df bb e3 3a 9a 3c
       -0.036247965 -0.0034107084 -0.0068140966 0.018826908
000050 35 f4 83 3c 67 91 7a bc 4f d5 20 3d aa 70 4a 3c
       0.016107658 -0.015293456 0.039265927 0.012355963
000060 a0 a6 a0 3b 10 68 00 3d cd 25 08 bb 10 a0 c2 3c
       0.0049026757 0.03134924 -0.0020774484 0.023757964
000070 9c b8 b5 bc 72 05 87 ba b5 f4 24 3d 22 22 65 bc
       -0.022182755 -0.0010301305 0.040272433 -0.013985189
000080 3d 0c 01 bd 5f 34 78 ba 3b 40 2c 3d 3d 44 94 bc
       -0.031505812 -0.0009468253 0.042053442 -0.018098945
000090 7b 7f c4 bb 55 f6 bb bc cf 1a 79 bb 1d 68 a8 3c
       -0.005996642 -0.022944609 -0.0038010364 0.020557458
0000a0 a4 6d 7c 3d 2d 9e 72 ba 06 df 19 3d f5 bf 9d 3c
       0.061628 -0.00092551374 0.037566207 0.019256571
0000b0 ca fd 06 3c 27 a2 e2 3c 22 32 22 3c 99 54 9d bb
       0.008239219 0.02766521 0.009899648 -0.0048013446
0000c0 37 95 4f 3b 54 08 25 bc f9 b5 f5 bb 17 4b ed bb
       0.0031674632 -0.010072786 -0.0074984995 -0.0072416174
0000d0 ce 39 54 bc 30 c3 9c bc 5c b7 36 3b 5b 71 63 bd
       -0.012953235 -0.019136041 0.0027880287 -0.055528026
0000e0 06 ac 9b 3c 76 f2 2c be 37 a6 c9 bb d0 5e 2d bb
       0.019002926 -0.16889367 -0.0061538476 -0.0026454218
0000f0 db ce c4 3b 25 c9 e8 3b 51 1a 0a 3c 5c 05 8d bd
       0.0060061044 0.0071040564 0.008429126 -0.06885788
000100 4b 85 17 3c 31 1a e3 bc a4 e2 24 3d c0 90 62 bc
       0.009248088 -0.02772245 0.040255204 -0.013828456
000110 b7 51 29 be 05 51 6f 3c 5a f9 d8 3c f8 ba dd bb
       -0.16535078 0.014606719 0.026486088 -0.006766673
000120 1d 66 02 bc 10 6f 4f 3a 84 10 82 3b 6e 79 31 bd
       -0.007958916 0.0007912973 0.003969254 -0.043328695
000130 e4 8c 79 3a 3d 04 3e 3c b7 d0 57 bd 86 23 18 3d
       0.00095195905 0.01159769 -0.05268928 0.037143253
000140 c0 16 2c 3c f7 0b 1b bd c5 22 ea bc 47 88 d4 bc
       0.010503471 -0.037853207 -0.028581033 -0.025943888
000150 b2 b2 54 bc 2c 17 0f 3d 14 91 96 3d 07 df 84 3c
       -0.012982057 0.034934208 0.0735189 0.016219629
000160 8a 74 3c bc 5a 50 05 3d 18 4a d0 3c d9 c6 f1 3c
       -0.011502394 0.032547332 0.025425956 0.029513763
000170 3f 99 14 3d 03 b5 e8 3c 00 7a 25 bc 1b 24 51 3c
       0.03627896 0.028406626 -0.010099888 0.012764956
000180 32 2b 62 3c 4a d9 9d bb cb ff f6 bc 81 e1 13 3c
       0.013804244 -0.0048171626 -0.030151268 0.009025932

dense_1/kernel/transpose f4 [100, 100]
000000 1b 3c 8d 3d c9 d9 7c be 2c e9 19 3f 42 22 24 bd
       0.0689623 -0.24692453 0.6012142 -0.040071733
000010 e8 bb 84 3d ca 83 5d 3e 71 23 9b be c1 7d ed bd
       0.06481153 0.21632305 -0.30300477 -0.11596251
000020 47 bd 3e be 75 f3 be bb f0 97 ec 3e 2d aa 97 3e
       -0.18626891 -0.005827362 0.4620967 0.2962202
000030 b4 37 c0 3d 72 47 bd 3e a9 96 c8 3e bf 1e 62 be
       0.093856245 0.3696857 0.39177445 -0.22082041
000040 17 23 db 3e 80 62 90 3e 4b 25 85 bd 7f d3 08 3f
       0.4280021 0.2820015 -0.06501254 0.5344772
000050 4f b5 8e 3d 93 1e 0b bf 30 a1 aa bc 29 47 2e 3e
       0.069681756 -0.5434353 -0.020828813 0.17019333
000060 ca 0d 0d 3f b6 31 0d 3d a4 7f 79 bb 83 7f 5a 3e
       0.55099165 0.034471236 -0.0038070465 0.21337704
000070 2f 62 c3 bd 76 d3 2b be 38 71 8e bb c8 1a 35 bd
       -0.095402114 -0.16779885 -0.004346993 -0.044214994
000080 43 f7 9f bd 86 64 96 3e 2a 93 2b bb 1f 67 a6 be
       -0.07810833 0.29373568 -0.0026180246 -0.3250055
000090 c3 45 00 3e cb 80 91 be 09 b8 32 be 5b b5 ab be
       0.12526612 -0.28418574 -0.17453016 -0.335368
0000a0 69 6c 5f be 0d 5a b1 be 4b 70 66 be ea 4c d2 3c
       -0.21818699 -0.34639016 -0.22503774 0.025671441
0000b0 e5 38 90 3d d4 60 9f be c4 a5 00 be a3 65 49 be
       0.07042102 -0.31128561 -0.12563235 -0.19667678
0000c0 26 d6 21 be d0 28 ce be d2 93 e1 3d 96 a0 1f be
       -0.15804347 -0.40265512 0.110145226 -0.15588602
0000d0 2f ec 11 bf 9c 0b 75 be b8 6b 0e be d3 6d 19 be
       -0.5700101 -0.2393021 -0.13908279 -0.14983301
0000e0 23 1d ef be a5 7a e7 be 98 d9 b9 3d 98 d9 4f be
       -0.46701917 -0.45210758 0.09074706 -0.20297849
0000f0 0a b4 20 be 4b 1c 5d 3f 5c 00 c2 be fe 9d 43 3e
       -0.1569368 0.86371297 -0.378909 0.19103238
000100 a3 6c 8f be 37 e6 39 bf 6b 6a 3c 3e eb b4 25 3e
       -0.2801257 -0.72616905 0.1839997 0.16182296
000110 af 65 9b be b2 ab ab 3c 54 c0 ca be c9 77 db 3d
       -0.30351016 0.020955894 -0.3959986 0.107162066
000120 b1 b6 f9 bd a5 c7 97 be 19 f6 74 be 3d 47 78 3e
       -0.12193049 -0.29644504 -0.23922004 0.24245925
000130 f6 16 08 be 8e 08 91 3e c6 ce 93 be 64 95 e1 3e
       -0.13290009 0.2832684 -0.28868693 0.44059289
000140 aa 05 13 3e b1 b6 d2 3d 1c 14 86 be e9 52 03 be
       0.1435763 0.10288752 -0.26187217 -0.12824596
000150 5c 60 cb be 6a 7b 18 be fa 1a 1f be c2 b0 7b 3d
       -0.39721954 -0.14890829 -0.15537634 0.061447866
000160 57 9b 2b be 8a b1 b0 3e a4 8a 49 3d bb d6 75 3d
       -0.16758476 0.34510452 0.049204484 0.060019236
000170 c4 d0 05 3d fd 7b c0 3e de 4e 74 be f9 8e 90 bc
       0.032669798 0.37594596 -0.2385821 -0.0176463
000180 23 05 18 3e 4f 4a 1a 3e 20 e8 26 3d 8e b3 40 bd
       0.1484571 0.15067409 0.040748715 -0.047046237
000190 9d 4a bd 3d 7b 34 c1 be 90 4c 1e 3f 2b 79 97 3d
       0.09242747 -0.37735352 0.61835575 0.07396158
0001a0 66 88 2d 3f 38 b8 3d 3e ae c3 4f be 4f f4 a1 be
       0.6778625 0.18527305 -0.2028949 -0.31631705
0001b0 e3 c2 08 be 5a 84 6e bd c4 af a2 3e 67 c2 92 3e
       -0.13355593 -0.05823169 0.31774724 0.28663942
0001c0 32 51 4c be e6 f4 fc 3e 3f 1c 17 3f 71 ae 0b be
       -0.19952849 0.49405593 0.59027475 -0.13640763
0001d0 45 2e 33 3e 1d 76 e0 3e 6f 41 d1 be af fe fd 3e
       0.17498119 0.43840113 -0.40870234 0.4960837
0001e0 9d 48 c1 3d 68 2c fd be fa cb c8 3d b3 de a6 bd
       0.09437678 -0.49447942 0.098045304 -0.08147945
0001f0 db 37 c4 3e 77 c9 59 bd 38 a6 a0 bd f3 b7 e8 3d
       0.38323864 -0.053170647 -0.07844204 0.113632105
000200 90 0d d4 bd 7a 8d a4 3d 48 61 61 3d 2a f5 a6 3b
       -0.10354149 0.08034797 0.055024415 0.005095144
000210 fd a0 79 be 0e 40 84 3e c2 0a 6a bd bf a2 27 be
       -0.24377818 0.2583012 -0.057139166 -0.16370676
000220 ed 4e 16 3c 8e d5 86 be d5 5f b1 bd 50 e5 fe bd
       0.009174091 -0.26334804 -0.08660857 -0.12446082
000230 08 01 8b be ae db 6a 3e c4 70 85 3d 59 72 c8 3c
       -0.27149224 0.22935364 0.06515649 0.024468588
000240 cf 3a e5 3d d7 d5 e6 be 72 c4 46 bd a0 4f 2d be
       0.111928575 -0.45085022 -0.04852719 -0.16924906
000250 13 7b 8c be 2d c2 4d be 7c 75 0d bd 0d e7 bd be
       -0.27437648 -0.20093603 -0.03453587 -0.3709034
000260 84 7a c9 be c1 26 58 be 96 6e 6d be 21 9b 2b be
       -0.39351285 -0.21108533 -0.23186716 -0.16758396
000270 ec 61 1a be 10 5c 94 be 88 bd 43 be 76 b2 e3 be
       -0.15076417 -0.28976488 -0.19115269 -0.44472092
000280 8b 85 5e be 74 2e df 3e e7 4b 33 be 01 52 00 3e
       -0.2173063 0.43590128 -0.17509423 0.12531282
000290 a5 d8 a8 be e1 88 2e bf 6a af 11 3e 2b 1e 84 3d
       -0.32977787 -0.6817761 0.14227071 0.064510666
0002a0 62 bc 46 be 8b 8b ac 3c f4 71 bd 3d 1e 76 15 3d
       -0.194078 0.021062633 0.092502505 0.0364896
0002b0 b8 56 d6 bc 6d 71 ab be d7 27 fc bd 0d d0 99 3e
       -0.026164398 -0.33484975 -0.12312286 0.30041543
0002c0 c9 b5 5c be be 49 6d 3e 7b fd 81 be a2 f9 b0 3e
       -0.2155372 0.23172662 -0.25388703 0.34565455
0002d0 60 42 3b 3d 27 52 be 3e 1d 5f bb be ac 60 0e be
       0.045717597 0.37172052 -0.36596003 -0.13904065
0002e0 91 07 11 bf 4a a0 24 bd 6b f5 13 3d c8 94 06 3d
       -0.5665217 -0.040191926 0.03612272 0.032856733
0002f0 19 d8 a8 bd 4a ec bd 3e e3 20 71 3d 09 74 4c be
       -0.08244342 0.37094337 0.058869254 -0.19966139
000300 81 50 1f 3e 7c 3a 97 3e 5f 6b 08 be 71 3b 8e bd
       0.15558054 0.29536808 -0.13322209 -0.06944931
000310 6a e9 01 3e 0f 4d 5f 3d e1 e9 22 3d e9 ac 55 bd
       0.12686697 0.05451685 0.039773826 -0.052166853
000320 60 e9 08 be b1 04 67 be 43 75 86 3e 8b e4 32 3c
       -0.13370275 -0.22560383 0.2626134 0.010918747
000330 fa fc ab 3e 37 7e a5 bc 22 d8 ee be ab 45 ec be
       0.33591443 -0.020201785 -0.4664927 -0.46146902
000340 c1 77 5f bd 7a 80 e9 3c be 21 16 3e a2 1e 20 3e
       -0.054557566 0.028503645 0.14661309 0.15636685
000350 86 d1 14 bd 52 5b 04 3e de f8 fe 3e 79 7d 6c be
       -0.03633263 0.12925461 0.49799246 -0.23094739
000360 b4 84 99 3e 6e 51 64 3e a8 f7 de bd 86 46 21 3e
       0.29984057 0.22296688 -0.108870804 0.15749559
000370 90 81 e2 bd 7a 32 44 be 6b 04 8c 3d cf a1 a1 3e
       -0.11059868 -0.1915988 0.0683678 0.31568763
000380 bb 54 c5 3d 5b 2d e6 bd 7e 63 51 3e 79 f0 b3 3e
       0.09635302 -0.112391196 0.2044811 0.35144404
000390 7f ca 75 be 34 a2 d1 bd 85 55 80 bd 9a be 30 3b
       -0.24003027 -0.10236016 -0.062663116 0.0026969076
0003a0 4b bc 12 be 51 a7 01 3f a3 41 74 3e 4f 52 ff bc
       -0.1432964 0.5064593 0.23853163 -0.031167177
0003b0 c4 db 94 3c 70 cb 45 bd 91 0e c4 bd 44 ac 29 be
       0.018171199 -0.048289716 -0.09573091 -0.1656962
0003c0 53 c8 bd be 9f 23 5b 3e 4e 6e 32 3e 6d 92 bb 3b
       -0.37066898 0.21400307 0.1742489 0.0057242424
0003d0 9f e1 2b 3e 77 b2 65 be 6f b3 77 bd 5f 78 8f be
       0.16785286 -0.2243136 -0.060473856 -0.28021523
0003e0 a1 0a 8f be 17 35 b8 bd d7 24 16 bc 3e 1f d4 bd
       -0.27937797 -0.08994501 -0.009164057 -0.103575215
0003f0 21 99 a9 be 22 f9 de be bf 4c 83 be ea 7b a7 bd
       -0.3312464 -0.43549448 -0.2564449 -0.081779316

dense_2/MatMul_bias f4 [100]
000000 8b 05 d6 3e f3 c0 26 3e ee 8b 50 bc ec 41 c3 3e
       0.41801104 0.16284542 -0.012728674 0.38136232
000010 f5 69 c8 3d e8 d1 cf 3e 56 fc 36 be f8 14 ff 3d
       0.09785835 0.40589833 -0.17869696 0.12455171
000020 3a 92 b4 3e f9 1c a5 3d bc 0e fe 3e ac b5 02 3f
       0.35267812 0.08062167 0.49620616 0.5105846
000030 e3 93 01 3e 66 d9 dd 3e 65 9f 3f 3e b2 5d f0 3e
       0.1265407 0.43329924 0.18713148 0.46946484
000040 e6 b6 c0 3e d7 16 c0 3e 54 72 c7 3e fd f5 00 3f
       0.3763954 0.37517425 0.38954413 0.5037535
000050 a2 53 26 3b 90 42 6e 3e f7 7b 9f 3e 4a 85 ec 3e
       0.002537944 0.23267579 0.31149265 0.4619544
000060 6f 3e a1 3d d8 7a ae 3e 9b 5d fe 3d ad 8c 04 3f
       0.078732364 0.34078097 0.124201976 0.51777154
000070 35 4a f1 3d 33 84 2d 3e e7 c9 be 3e 8a b3 bb 3e
       0.11781732 0.16944961 0.37263414 0.36660415
000080 80 c8 14 3e a6 e3 3f 3e 1d d9 96 3e a9 57 28 3e
       0.1452961 0.18739185 0.2946252 0.1643969
000090 03 c5 be 3e 5b ad 00 3e a4 a1 e7 3e 67 1d 95 3e
       0.37259683 0.1256613 0.4524051 0.29123995
0000a0 87 de d6 3e 0d 83 97 3e e5 02 e6 3e d2 54 62 3e
       0.4196665 0.2959217 0.44924083 0.22102669
0000b0 d3 2f cd 3e 43 e8 d7 3e 2c b8 c4 3e f6 64 8b 3e
       0.4007555 0.4216939 0.38421762 0.27225465
0000c0 35 ec ca 3e 52 aa d2 3d 8b dc 2e 3e 52 87 8f 3e
       0.39633337 0.10286392 0.17076318 0.2803293
0000d0 b7 e1 ab 3e 2e 84 e0 bc bd ed 67 3e c3 69 a2 3e
       0.33570644 -0.027406778 0.22649284 0.31721315
0000e0 12 19 ef 3e d0 0d e1 3e d8 9a 2f 3d 34 5d 61 3e
       0.46698815 0.4395585 0.04287228 0.2200821
0000f0 a9 d0 f6 3e f9 d9 e3 3e 27 2f 08 be 63 97 f1 3e
       0.4820607 0.44502237 -0.13299237 0.4718581
000100 d7 e1 09 3f 2e 41 00 3d 5e 97 59 3d d4 40 41 3e
       0.5386023 0.03131216 0.05312287 0.18872386
000110 23 64 fe 3e ec 6e c7 3e 63 c0 29 3e 96 fb 0a be
       0.49685773 0.38951814 0.16577296 -0.13572535
000120 4a 50 ea 3e 18 62 ce bd bb 7b d1 be 6b 5d 93 3e
       0.4576438 -0.10077304 -0.4091471 0.2878221
000130 b9 57 d5 3e ba 69 f6 3e da f3 98 3e c4 ee be 3e
       0.4166849 0.48127538 0.29873544 0.3729154
000140 c0 96 de 3e f2 3f d4 3e bf c5 ee 3e 42 01 eb 3e
       0.43474388 0.41455036 0.46635243 0.45899397
000150 d7 e9 02 3f 17 6d d5 3e f7 c9 a5 3e 58 1a 83 3d
       0.5113806 0.4168479 0.3238065 0.06401509
000160 7f fb d0 3e 0e f0 cf 3e 99 03 c5 3e c9 73 80 3d
       0.40816876 0.40612835 0.38479307 0.06272084
000170 56 19 e7 3e a0 ed 90 3e e4 7a d8 3e a9 14 d2 3e
       0.45136517 0.28306293 0.42281258 0.41031387
000180 74 23 a0 3d 4f cb c8 3e 49 42 9d 3d 79 46 e0 3e
       0.07819262 0.39217612 0.076786585 0.43803766

dense_2/kernel/transpose f4 [100, 100]
000000 58 0c b1 be 6a 19 b2 be dd 77 66 be 2f 70 0a be
       -0.3457973 -0.34785014 -0.22506662 -0.13519357
000010 69 bd 60 be cc a3 22 be 74 90 c0 bd d9 9f 63 be
       -0.21947254 -0.15882796 -0.09402552 -0.22228946
000020 d4 08 ff 3d fb 00 06 be 09 4a ec 3d 62 b3 af be
       0.12452856 -0.13086312 0.115375586 -0.34316546
000030 87 d2 69 3c b8 b0 30 be 0d a2 4f be 73 a4 68 be
       0.014271385 -0.17254913 -0.20276661 -0.22718982
000040 5c 75 92 bd fb 6f c4 be 5c 28 79 be f2 d0 ee bd
       -0.07151291 -0.38366684 -0.24331802 -0.11660947
000050 17 d5 a9 be f0 3f 97 be ed 27 cd bd 59 6f 8c be
       -0.33170387 -0.29540968 -0.10017381 -0.27428702
000060 1d 41 26 3e df 45 82 bd fd 1f 2a be e9 18 59 bd
       0.16235776 -0.06360983 -0.16613765 -0.05300227
000070 3c a1 23 39 60 28 34 be 4e 8b 11 be 1c 9b 20 3e
       0.00015604956 -0.17593527 -0.14213297 0.1568417
000080 44 08 28 be 71 f7 45 be 47 9b 5d 3e c1 8f 96 3d
       -0.16409403 -0.19332673 0.21641265 0.07351638
000090 51 a2 3b 3a 5b 44 97 be b9 ff f4 3d 7f 78 bc 3d
       0.0007157671 -0.2954434 0.11962838 0.0920267
0000a0 bd f5 34 bd 4f 70 fe bd 38 cd 95 ba 65 a2 b9 bc
       -0.044179667 -0.12423765 -0.0011428958 -0.022660444
0000b0 3b ef 20 be d5 f1 82 be 1a 6e d1 3d 26 d4 a6 bd
       -0.15716259 -0.25575128 0.10226078 -0.08145933
0000c0 21 07 d2 be 33 68 0f 3e c6 12 04 3e b6 d1 17 be
       -0.41021064 0.14004593 0.12897786 -0.14826092
0000d0 36 10 d3 bd 10 61 77 be de db 70 be 2c 05 05 3e
       -0.10305826 -0.2415812 -0.23521373 0.12990254
0000e0 36 37 e8 bc 71 9a 33 be 02 91 5d bd 98 a6 25 be
       -0.02834664 -0.17539383 -0.05409337 -0.16176832
0000f0 cd 80 d0 3d 52 ea 6c bd 47 e4 62 be e2 81 87 bd
       0.10180817 -0.057840653 -0.22157393 -0.0661657
000100 82 2a b9 be aa 6e a2 bc 47 84 9c 3d 3b 8e cb 3d
       -0.36165243 -0.01982816 0.076424174 0.09939238
000110 69 79 03 3e e2 5a 86 be f9 c1 0d 3e ef 2a 44 bc
       0.12839283 -0.26241213 0.13843526 -0.011973127
000120 ce 00 b3 bd 92 cf a6 bd 3a 27 05 be 6b 32 e5 bc
       -0.08740388 -0.0814506 -0.13003245 -0.027978143
000130 b5 fe a7 be 59 74 e5 bc e7 7e 87 3d 74 78 0b 3e
       -0.32811514 -0.02800958 0.066160016 0.13620168
000140 7a 42 cc 3d 1d c3 b0 be 36 02 2b 3e 03 17 16 3e
       0.09973617 -0.3452386 0.16700062 0.14657216
000150 64 a1 1f be e7 69 b6 bd 19 6a 2f 3e 58 f0 27 3e
       -0.1558891 -0.08906918 0.17130317 0.16400278
000160 d7 37 63 3e e1 03 80 be e6 f7 f7 3d 41 35 b8 be
       0.2218927 -0.2500296 0.1210783 -0.3597813
000170 9f 8a b9 bd 71 52 8f bb 3f bc d9 be 3a 8d 5f be
       -0.09059643 -0.0043738415 -0.42526433 -0.21831217
000180 6e 07 ab be 0f d3 7b 3d 1d c3 c7 3d a9 73 a0 3d
       -0.33404106 0.061480578 0.09754012 0.078345604
000190 e5 45 4d 3e e5 75 0c be 83 48 08 be a1 0d 59 be
       0.20046194 -0.13716848 -0.13308911 -0.21196605
0001a0 d7 e2 37 3e d7 11 bf 3d 8e 6f 77 be 2d 7d e7 bd
       0.17957626 0.093295746 -0.24163648 -0.11303172
0001b0 43 aa 11 be 00 8e 51 be c3 4a b6 be b0 1f f3 bd
       -0.14225106 -0.20464325 -0.35603914 -0.11871278
0001c0 ea a3 1d be c2 31 b1 be e8 39 e9 bc 7f 6a 00 3e
       -0.1539456 -0.34608275 -0.028469995 0.12540625
0001d0 f9 fb 8f 3e e4 ff 80 3e a0 2f d4 3d 86 4f 8f be
       0.28121927 0.2519523 0.10360646 -0.2799036
0001e0 fe 07 ab 3d d7 45 50 3e 96 b1 d0 be 72 20 31 3d
       0.08351134 0.20339142 -0.40760487 0.043243833
0001f0 4c 27 b2 be 1d 0f 0a be d5 b4 4a be 49 03 61 bd
       -0.34795606 -0.13482328 -0.19795544 -0.054934774
000200 5d bc e8 be 18 d0 42 be 75 34 f9 bc 7e d2 2c be
       -0.4545621 -0.19024694 -0.030420521 -0.16877171
000210 20 96 26 3e 73 76 6f be 56 73 00 be a2 ce d0 bd
       0.16268206 -0.23385029 -0.12543997 -0.10195662
000220 5a 45 1f 3b df 0c 57 be b4 e3 de be d4 74 15 be
       0.0024302811 -0.21001004 -0.435331 -0.14595348
000230 10 6d 49 be 28 03 c5 3c 2d cc 1e be 50 78 2c be
       -0.1967051 0.024049357 -0.15507574 -0.1684277
000240 df 4a 2d be 42 90 3e 3d a4 01 e8 bc 46 51 eb 3d
       -0.16923092 0.046524294 -0.028321095 0.11490111
000250 33 3f 46 3e ae 57 8c 3d 9b 29 79 be a9 4f e9 3d
       0.19360046 0.06852661 -0.24332277 0.11392147
000260 e0 fd 88 be a3 1e 36 3e 3d 33 11 be 6f 35 73 be
       -0.2675619 0.17785124 -0.14179702 -0.23750852
000270 4b 5f 99 3d cc 31 a1 3d ba 17 78 3e b8 1f 71 be
       0.07488879 0.07870826 0.24227801 -0.23547256
000280 c1 bd 47 be 4b ee 92 be 33 f7 5b be 2a 67 4b be
       -0.19505979 -0.28697428 -0.21481018 -0.19863573
000290 de e8 4a be ef 25 9a be 9c ae 8f bd c8 30 c3 bd
       -0.19815394 -0.30107066 -0.07015726 -0.09530789
0002a0 f4 62 a4 bd 9f cb 3f be 75 6a 86 be 15 7a 5a be
       -0.08026686 -0.18730019 -0.26253095 -0.21335633
0002b0 ec f6 74 3e 82 26 e6 be 22 95 33 be 6a 28 d9 be
       0.23922318 -0.44951254 -0.17537358 -0.42413646
0002c0 7f 25 04 be 65 e7 87 be bb 1a 0f be 76 a3 0b bd
       -0.12904929 -0.26543728 -0.1397504 -0.034091435
0002d0 4b da c0 be 49 a4 bc 3b 81 fd 9a be bc 36 04 be
       -0.37666544 0.005756889 -0.30271533 -0.12911505
0002e0 2b 64 a2 be f2 ad bd 3d 04 90 a8 be 35 26 9f be
       -0.31717047 0.09261693 -0.32922375 -0.31083837
0002f0 d7 34 55 be 41 45 69 3e 80 35 87 be 6a 84 fd bd
       -0.20820938 0.22780325 -0.26408005 -0.123787716
000300 8b 1f 65 be 6f bb 9e be 01 bd c5 bc 34 24 f3 3d
       -0.22375314 -0.31002375 -0.024137976 0.118721396
000310 5c 69 d5 3d 21 e1 ab 3e f7 1e 86 bd 90 e9 08 be
       0.10420486 0.33570197 -0.06548875 -0.13370347
000320 b8 92 1a be 01 e7 af bd 4d ea a9 bd fa 26 96 3b
       -0.15095031 -0.085889824 -0.082966425 0.004582283
000330 6a f3 5e be b7 53 bf be 4b 5e 59 be 34 c9 d4 bd
       -0.21772543 -0.37368557 -0.21227376 -0.10389939
000340 e5 ea fd bd 7e 52 97 bc c2 92 f4 bd 3c 4e 83 be
       -0.12398318 -0.018471953 -0.11942054 -0.25645626
000350 b6 c8 49 3e 3a d8 29 be 9e 23 14 bd 0d 14 ad be
       0.19705471 -0.1658639 -0.03616678 -0.3380436
000360 49 16 85 be d2 02 0f 3d 2c a1 25 be 58 05 a8 be
       -0.25993565 0.0349148 -0.16174763 -0.32816577
000370 3c 76 10 bd 11 de 05 3d fe a8 5b bd 4f 0d 32 be
       -0.035269007 0.032682482 -0.05362796 -0.1738789
000380 c6 04 65 bd ed d9 91 3d 9c a2 24 be 39 a3 3b be
       -0.055912755 0.07121644 -0.16077656 -0.18323983
000390 03 65 2d 3d fc ba 66 be c2 08 e4 bd 30 c3 85 be
       0.04233266 -0.22532266 -0.11134483 -0.2612548
0003a0 a7 8f 09 3e e4 53 a9 be fd 9b 1b 3b 57 3f 03 3e
       0.13433705 -0.33071816 0.00237441 0.12817131
0003b0 aa 3d dd bd 3e ee 30 3e bd 4e 9f bd 94 01 e8 bc
       -0.10802777 0.17278382 -0.0777869 -0.028321065
0003c0 86 99 b9 3d 72 12 42 bd 16 89 96 bd e0 7b 98 bc
       0.090624854 -0.047380872 -0.07350366 -0.018613756
0003d0 cf f3 a2 bd 51 52 0a 3e bb a5 4b 3e 55 7a d1 3c
       -0.07956659 0.13507964 0.1988744 0.025571028
0003e0 e4 64 e1 be ff 02 1d 3d 8d 94 28 be b1 83 04 3c
       -0.44022286 0.038332935 -0.16462918 0.008088038
0003f0 d4 a9 79 be 0b 27 07 be 79 13 36 be d0 34 c2 be
       -0.2438119 -0.13198487 -0.17780866 -0.37930918

dense_3/kernel/transpose f4 [1, 100]
000000 28 52 6e be be e1 0e 3e 5a c4 9b 3c b0 39 18 3e
       -0.23273528 0.13953301 0.019014526 0.14865756
000010 6c 8e e7 3d 55 52 32 3e 1f 96 8b 3c f0 22 23 be
       0.11306462 0.1741422 0.017039357 -0.15931296
000020 b5 a6 ac 3d 54 e7 e8 bc 25 3b 87 be 4c a6 b6 be
       0.08430234 -0.028430618 -0.2641231 -0.3567375
000030 b1 9e 9a bd fa 4e 9d be 07 e2 cd bd dd f5 96 be
       -0.07549799 -0.30724317 -0.10052877 -0.29484454
000040 66 b4 a0 be 44 67 03 3e e1 26 42 3e a3 24 77 3e
       -0.31387633 0.12832361 0.18960144 0.2413507
000050 a3 92 83 3c f9 17 27 be ed 38 b7 3d d5 29 fa 3d
       0.016061133 -0.16317739 0.089464046 0.1221501
000060 09 dd c8 3d 29 0c 0a 3d 87 ea 01 be b0 d3 95 3e
       0.09807784 0.033703003 -0.12687121 0.29263067
000070 6d d0 c7 3d 5a 1f fe bd 23 3f 33 3e aa 11 63 3d
       0.09756551 -0.124083236 0.17504553 0.055436768
000080 2d 9f c5 3d 6f 67 f4 3d 58 6b fe 3d a4 54 b7 bd
       0.09649501 0.11933791 0.12422818 -0.08951691
000090 a4 26 28 3e 3b f2 ca 3d 85 bc 4c be 4c eb c1 3d
       0.1642099 0.09909483 -0.1999379 0.094687074
0000a0 82 ee 9e be bd 96 9b 3d e9 86 24 3e 20 9e d9 bd
       -0.31041342 0.075971104 0.16067089 -0.10625863
0000b0 7f 46 50 3e 91 ce 69 be ae 11 4a 3d 61 66 58 bd
       0.20339392 -0.22832705 0.049333267 -0.05283201
0000c0 c3 56 5d be 03 26 d1 3d fa 16 17 3e ef c1 63 bd
       -0.21615128 0.10212328 0.14754859 -0.05560487
0000d0 06 80 29 3e 02 e0 34 3d f9 c1 9f bd 2b f1 30 be
       0.16552743 0.044158943 -0.07800669 -0.17279498
0000e0 01 47 84 be c8 c3 70 be 1c eb 91 ba 41 46 bb 3d
       -0.25835422 -0.23512185 -0.001113269 0.09144259
0000f0 74 f7 8a be 76 38 3b 3e a1 86 2f bd b1 7e 6f 3e
       -0.27141917 0.18283257 -0.042853 0.23388173
000100 3b 14 80 3e 4e b4 5d 3d 41 72 a4 3d 2d 5b 09 bd
       0.25015435 0.05412703 0.08029605 -0.033534218
000110 2a d7 9e be 93 4a 22 3e 01 ef 04 3e c5 84 4a 3c
       -0.31023532 0.1584876 0.12981798 0.012360756
000120 f8 69 64 be 59 2b 03 3e 05 50 92 bc db 49 f9 3c
       -0.22306049 0.12809505 -0.017860422 0.030430725
000130 ca fc 53 3e a2 bc 22 be d9 2a 4a bd 25 57 8a be
       0.207019 -0.1589227 -0.04935727 -0.2701961
000140 17 c4 1c be 3b 11 50 be cd 4d 6b be 0e 9b 8d be
       -0.15309177 -0.20319073 -0.22978897 -0.2765736
000150 e9 e2 81 be 76 59 37 3e 8d 76 9f bd e9 53 c6 bc
       -0.2536843 0.1790522 -0.07786284 -0.024209933
000160 94 c3 77 3e 12 b1 11 be c8 87 78 be 2d 3f e1 bb
       0.24195701 -0.14227703 -0.24270546 -0.006873986
000170 91 46 8f be 9e a7 89 3d 5f 64 6a 3e 7c ec 22 be
       -0.27983525 0.067214236 0.22889851 -0.15910524
000180 12 5b fd 3d ef 53 1b be 8e 2f 1c bc 71 55 52 be
       0.12370886 -0.15168737 -0.009532822 -0.20540406
